snake-ai-pytorch-main/model/model.pth (torch, 16787 bytes, 4 tensors)

linear1.weight f4 [256, 11]
-0.032555964 0.07032415 -0.029626578 -0.13303518 -0.18393275 -0.11331749 0.2821635 0.160641
-0.24971572 -0.16610989 -0.17609237 0.07721987 0.020526221 -0.20157415 0.101679206 0.24026836
0.1776502 -0.0079013705 -0.086673915 0.17145759 -0.2117788 -0.24985228 0.049659964 -0.07803407
-0.14234301 0.25186694 0.14909877 0.13350074 0.27861655 -0.08164129 -0.24816653 0.28770924
-0.10436459 0.14426321 0.13790052 -0.15710364 -0.24913125 0.20639734 0.083768085 -0.094175756
0.030226635 -0.06911287 0.074709095 -0.060926046 -0.19215403 0.20471537 -0.25756624 0.100080945
0.26179087 -0.014279185 -0.29372194 -0.040015716 -0.037758432 -0.07675468 0.06620887 0.16170064
-0.1196211 -0.007732868 0.144117 -0.18117276 0.08088353 -0.22688004 -0.084696874 -0.17606993
-0.16840594 -0.2071282 0.09583123 -0.22074944 -0.10371746 0.0027435957 -0.23506254 -0.2552927
0.19144353 -0.20059466 0.05206538 -0.12024972 0.25014704 -0.2005248 0.26625845 0.044336263
-0.2865665 0.11638012 -0.23619732 0.13085617 0.32358676 0.04336389 -0.23581992 -0.035674885
-0.107265934 0.049318314 -0.2093677 0.12725039 -0.22467598 -0.081380114 -0.26356894 -0.2544451
0.15341501 0.15872031 -0.14573576 0.31396338 0.06253997 -0.1392104 -0.13081832 -0.15032214
-0.06958041 0.12336195 -0.12284431 0.029443232 0.2226184 0.12758686 0.15112297 0.24105698
0.15689647 0.30429792 -0.30077684 -0.2367424 0.16042902 -0.076437436 0.043087956 -0.21457922
0.06584693 0.2231764 0.22296458 -0.20546833 -0.30689535 0.071433775 0.017679583 -0.27493733
-0.20526592 -0.21487586 0.1852891 -0.021975722 0.23458362 0.10358271 0.01600653 -0.17242676
0.06972263 0.19854087 0.08880711 -0.08208512 0.06675938 0.054954123 0.16305609 0.30037782
0.1718689 0.1439756 -0.06460546 0.22469193 0.1897414 0.20863554 -0.037373103 0.30514944
0.10674801 -0.18197437 0.021582657 -0.13212597 0.09120193 0.284461 0.10996322 0.10079878
-0.2595744 0.20188473 -0.2680809 -0.24057867 -0.19040455 -0.0028874634 -0.16527964 0.23933008
0.27165982 -0.025409162 -0.015981141 0.18960395 0.2173201 0.123896144 -0.0076265857 -0.1573936
-0.022782773 0.26760095 0.25821954 -0.16918586 -0.0904003 -0.18307038 -0.1808613 0.14060184
0.118248895 -0.057680093 -0.26057127 -0.08561608 0.1716415 0.16148183 0.09595372 0.10659028
0.16664402 0.07795977 -0.00029988898 -0.27376607 -0.049198974 -0.20901874 -0.053423837 0.06675168
-0.040883504 0.29414004 -0.08747927 -0.19716094 -0.24973996 0.060605574 0.24873264 0.09254471
0.21225668 0.2612695 -0.08921506 -0.22252536 -0.054899283 -0.18046899 0.084297776 0.32212248
0.11700575 0.14131744 0.22056104 -0.24682878 -0.20467909 -0.15723978 0.23664273 0.2621377
0.026149783 -0.0063716066 0.20220664 -0.21656787 -0.16129859 -0.17479369 0.21628138 0.3553036
0.10873798 -0.11845907 -0.0594608 0.10832917 -0.29273745 -0.0960225 0.22120188 -0.072672926
-0.08262391 -0.21330957 -0.20817743 -0.26303884 0.031806346 0.15610535 0.09779188 0.15015472
0.11129836 0.2505741 -0.008558181 0.032983292 0.18481523 -0.007920847 -0.1010105 0.024029903
00000000: 6759 05bd 1c06 903d 70b3 f2bc 603a 08be
00000010: de58 3cbe 0013 e8bd bc77 903e 137f 243e
00000020: 7ab5 7fbe b618 2abe 8f51 34be 7425 9e3d
00000030: 9b26 a83c 7469 4ebe 303d d03d e908 763e
00000040: efe9 353e c074 01bc 1882 b1bd 9492 2f3e
00000050: 8bdc 58be 47d9 7fbe 3f68 4b3d 54d0 9fbd
00000060: 5ec2 11be b4f4 803e 59ad 183e 6bb4 083e
00000070: d4a6 8e3e 8c33 a7bd 5e1f 7ebe a04e 933e
00000080: 1abd d5bd bcb9 133e cb35 0d3e c7df 20be
00000090: 431c 7fbe d359 533e 9a8e ab3d 38df c0bd
000000a0: d99d f73c 0c8b 8dbd 1501 993d 978d 79bd
000000b0: 07c4 44be e8a0 513e b9df 83be 3df7 cc3d
000000c0: 7409 863e 3ef3 69bc b962 96be 85e7 23bd
000000d0: 96a8 1abd 8f31 9dbd 8498 873d da94 253e
000000e0: e8fb f4bd 0064 fdbb 6893 133e 5a85 39be
000000f0: 44a6 a53d 3e53 68be 8e75 adbd ad4b 34be
00000100: 9b72 2cbe 6a19 54be 2a43 c43d 240c 62be
00000110: d269 d4bd e6cd 333b 3cb4 70be bab5 82be
00000120: c609 443e b068 4dbe 8242 553d 7c45 f6bd
00000130: 4613 803e 6056 4dbe 0753 883e f199 353d
00000140: d8b8 92be b358 ee3d b6dd 71be 29ff 053e
00000150: 2aad a53e 569e 313d c77a 71be d41f 12bd
00000160: 3eae dbbd 0002 4a3d 7d64 56be ed4d 023e
00000170: 7611 66be 9eaa a6bd 82f2 86be a146 82be
00000180: d318 1d3e 9487 223e c13b 15be cfbf a03e
00000190: f514 803d 2c8d 0ebe 3df5 05be 0cee 19be
000001a0: 2d80 8ebd 31a5 fc3d cc95 fbbd ef32 f13c
000001b0: 14f6 633e 21a6 023e fbbf 1a3e a4d7 763e
000001c0: 78a9 203e f0cc 9b3e 6cff 99be 9a6c 72be
000001d0: 8147 243e 3b8b 9cbd ff7c 303d a8ba 5bbe
000001e0: c1da 863d 5b88 643e d450 643e 4a66 52be
000001f0: 6321 9dbe df4b 923d c6d4 903c 96c4 8cbe
00000200: 3b31 52be 6b08 5cbe 6dbc 3d3e 6e06 b4bc
00000210: b036 703e 2c23 d43d 2020 833c a490 30be
00000220: bdca 8e3d 4c4e 4b3e 81e0 b53d 3e1c a8bd
00000230: 24b9 883d 9317 613d 2df8 263e 1fcb 993e
00000240: 67fe 2f3e 576e 133e de4f 84bd a415 663e
00000250: 924b 423e 8ea4 553e 8a14 19bd 8c3c 9c3e
00000260: b39e da3d 7d57 3abe 1dce b03c 084c 07be
00000270: 14c8 ba3d dfa4 913e 6634 e13d 976f ce3d
00000280: f0e6 84be dfba 4e3e e641 89be 415a 76be
00000290: 69f9 42be 993b 3dbb 113f 29be f212 753e
000002a0: ff16 8b3e e026 d0bc e2ea 82bc 8a27 423e
000002b0: 2989 5e3e 43bd fd3d 70e8 f9bb ca2b 21be
000002c0: f0a2 babc fe02 893e 5a35 843e 0f3f 2dbe
000002d0: cb23 b9bd cd76 3bbe b433 39be eef9 0f3e
000002e0: 7a2c f23d f641 6cbd 9969 85be 7c57 afbd
000002f0: cac2 2f3e 7e5b 253e 6283 c43d 014c da3d
00000300: bba4 2a3e 5fa9 9f3d 6b3a 9db9 112b 8cbe
00000310: dd84 49bd 0209 56be f4d2 5abd 1bb5 883d
00000320: 7675 27bd 8699 963e 5528 b3bd 8fe4 49be
00000330: d5bb 7fbe 8d3d 783d c5b3 7e3e 1588 bd3d
00000340: d159 593e 1ec5 853e 63b6 b6bd b0dd 63be
00000350: 12de 60bd ddcc 38be 50a4 ac3d 3ded a43e
00000360: b6a0 ef3d 85b5 103e c1da 613e afc0 7cbe
00000370: 6597 51be 7703 21be 7952 723e ea36 863e
00000380: 1238 d63c e9c8 d0bb 420f 4f3e f8c3 5dbe
00000390: 752b 25be 1efd 32be de78 5d3e 5aea b53e
000003a0: 05b2 de3d ab9a f2bd 2b8d 73bd afdb dd3d
000003b0: afe1 95be 72a7 c4bd bf82 623e 8bd5 94bd
000003c0: b936 a9bd d36d 5abe 772c 55be 07ad 86be
000003d0: 5f47 023d 15da 1f3e 1c47 c83d 29c2 193e
000003e0: 65f0 e33d 404b 803e 9d37 0cbc 7d19 073d
000003f0: 3440 3d3e 71c6 01bc 98de cebd 5cda c43c

linear1.bias f4 [256]
-0.120002046 -0.21976455 0.08102714 0.0402441 0.18207346 -0.12220104 -0.21915677 -0.018715186
-0.011925567 0.32473502 0.008034718 0.15603496 0.13576175 0.19629326 0.042798087 -0.06831094
-0.031649914 -0.1259472 0.011613041 0.22004375 -0.108811006 0.15696022 -0.15566435 0.17788722
-0.29529333 0.27643645 -0.22690944 0.042477656 -0.14129378 0.05751041 0.21933807 -0.31423303
-0.2840044 0.022076676 0.14704767 -0.118815474 -0.050833046 0.12651075 0.19562222 0.039235298
0.120719925 -0.23113239 -0.1156888 -0.23473415 0.092880175 0.1803714 0.15432523 0.2610312
0.070792794 0.05325613 0.14645304 -0.06518932 -0.29177547 -0.28359908 0.09658477 0.1676674
0.3598127 0.23068589 0.19556941 0.039958168 0.018711518 0.061329007 0.01635606 -0.0013937352
0.05454005 0.30665618 0.2251473 0.15033412 -0.16058189 0.25310472 0.049882066 0.23881611
-0.284309 0.13899171 0.009497152 -0.040901795 -0.10875278 -0.32892555 0.16903998 0.095988974
-0.20671126 -0.06844846 0.07197486 -0.07814289 -0.08253974 -0.032054104 0.10490299 0.18551499
0.022993833 0.19056197 0.13608117 0.05454968 0.29965314 0.23453656 0.06566349 0.067654535
-0.14709899 0.055311248 0.30526066 -0.20427854 0.07101703 -0.109856084 0.24557184 -0.058824524
-0.13419455 -0.15454584 0.20484257 -0.14091252 0.16461162 0.26119483 -0.029583473 -0.026062995
0.28325737 -0.14101966 0.136416 -0.24668296 0.2568951 -0.11344499 0.1370068 -0.2736601
0.3250585 0.19791023 -0.040068444 -0.00793054 -0.22325316 0.28140885 -0.123890124 0.04703885
0.1764359 -0.15480924 0.1704727 -0.054319628 0.05136785 0.28376046 -0.16078945 -0.1586184
-0.2788567 -0.16395052 -0.007492032 0.1647967 0.038392063 0.06935877 -0.029685218 0.13695288
0.04563334 -0.1474086 0.029576154 0.0033129666 0.21398681 0.10820346 0.1169488 -0.16913046
0.16821513 0.22216955 -0.24764997 -0.20036773 -0.16358851 0.20642321 -0.24128813 -0.16293487
0.10605097 -0.17862746 0.118908145 0.17826098 0.023509946 -0.14302933 0.1576115 -0.23091519
-0.15389222 0.30908006 0.1823058 0.013420794 0.044103585 0.11916075 0.2109746 -0.2665136
-0.14442462 0.013897321 -0.29792723 -0.041634448 0.22112061 -0.046173234 -0.18402502 -0.27059388
-0.298957 -0.009442222 -0.15044664 0.060610175 -0.1329554 0.092981815 0.19374037 -0.14266586
-0.21473712 0.30040482 -0.21345638 0.016797123 0.24540205 -0.2428288 -0.08905215 -0.28942686
0.18864338 -0.16074365 -0.17460005 0.09826062 -0.29533464 -0.26013085 0.09544452 0.23895931
-0.14746025 -0.1536828 0.06595635 0.33357546 0.07258094 0.14165722 -0.023796715 0.1845522
0.11067872 0.25601462 0.015228307 -0.08962243 -0.07104663 0.008827838 0.17841849 -0.030404737
0.2532183 0.06372329 -0.21748665 -0.18055181 -0.22898138 -0.10546525 0.26316273 0.0065745995
0.15638182 0.052941132 0.20533584 0.06032257 -0.18929915 0.15996888 0.07410426 0.31981388
-0.19732162 -0.01438971 -0.16760656 -0.20797378 -0.029359499 0.2594299 0.12994525 -0.10213112
0.12604964 0.29595503 0.21242787 -0.11160467 -0.08592701 0.22177772 0.21972409 -0.24681094
00000000: a2c3 f5bd f509 61be 8ff1 a53d ffd6 243d
00000010: 7771 3a3e 8a44 fabd a26a 60be 9750 99bc
00000020: 7463 43bc ab43 a63e 0da4 033c a1c7 1f3e
00000030: 2105 0b3e 1a01 493e 0c4d 2f3d 9be6 8bbd
00000040: 57a3 01bd 4ef8 00be a044 3e3c 2653 613e
00000050: 4ed8 debd 2eba 203e 7a66 1fbe 1128 363e
00000060: b030 97be 1489 8d3e f35a 68be 0dfd 2d3d
00000070: 51af 10be 0990 6b3d 299a 603e 27e3 a0be
00000080: 0669 91be 25da b43c aa93 163e 8755 f3bd
00000090: 5036 50bd 098c 013e 3151 483e 31b5 203d
000000a0: 023c f73d f8ad 6cbe 40ee ecbd 265e 70be
000000b0: f637 be3d 48b3 383e 6f07 1e3e e2a5 853e
000000c0: d0fb 903d 1a23 5a3d c9f7 153e fa81 85bd
000000d0: 9863 95be e633 91be 3cce c53d 01b1 2b3e
000000e0: 5f39 b83e ec38 6c3e 5943 483e 2dab 233d
000000f0: e648 993c 2034 7b3d 25fd 853c fead b6ba
00000100: 6365 5f3d 0a02 9d3e 048d 663e 30f1 193e
00000110: 946f 24be f196 813e 2351 4c3d 368c 743e
00000120: f390 91be d853 0e3e f199 1b3c a488 27bd
00000130: c7b9 debd ee68 a8be d118 2d3e de95 c43d
00000140: 1eac 53be b52e 8cbd 8e67 933d 6109 a0bd
00000150: 980a a9bd 2a4b 03bd 61d7 d63d a4f7 3d3e
00000160: 905d bc3c ad22 433e dd58 0b3e 7c6f 5f3d
00000170: 236c 993e 5a2a 703e 947a 863d 768e 8a3d
00000180: 1ea1 16be 0c8e 623d 204b 9c3e 652e 51be
00000190: 6071 913d 3afc e0bd 2f77 7b3e fcf1 70bd
000001a0: 4c6a 09be 4441 1ebe 40c2 513e 5f4b 10be
000001b0: f38f 283e 54bb 853e 0a59 f2bc 1082 d5bc
000001c0: 1c07 913e 7567 10be a3b0 0b3e 759a 7cbe
000001d0: c187 833e d955 e8bd 834b 0c3e 2d1d 8cbe
000001e0: 116e a63e fba8 4a3e cf1e 24bd 18ef 01bc
000001f0: 7a9c 64be d214 903e 1bba fdbd cfab 403d
00000200: 9dab 343e 5086 1ebe 6590 2e3e 427e 5ebd
00000210: 1867 523d 0d49 913e fda5 24be dd6c 22be
00000220: 4ec6 8ebe a5e2 27be b87f f5bb 77c0 283e
00000230: ff40 1d3d f90b 8e3d 6a2e f3bc 603d 0c3e
00000240: 06ea 3a3d 48f2 16be b149 f23c 5b1e 593b
00000250: 5c1f 5b3e c799 dd3d da82 ef3d 8930 2dbe
00000260: 9640 2c3e 6a80 633e f497 7dbe 332d 4dbe
00000270: bf83 27be 9b60 533e 3c14 77be 66d8 26be
00000280: 4031 d93d 1eea 36be 1d86 f33d 0c8a 363e
00000290: ee97 c03c 4876 12be e964 213e 0875 6cbe
000002a0: ec95 1dbe be3f 9e3e 5fae 3a3e e4e2 5b3c
000002b0: f6a5 343d 8d0a f43d ba09 583e 7874 88be
000002c0: 0ce4 13be 97b1 633c eb89 98be e288 2abd
000002d0: 716d 623e 2520 3dbd 0e71 3cbe 488b 8abe
000002e0: e410 99be 8db3 1abc af0e 1abe 6042 783d
000002f0: 7625 08be 406d be3d e063 463e 0017 12be
00000300: 0ce4 5bbe a9ce 993e 4f94 5abe 1f9a 893c
00000310: ad4a 7b3e 1da8 78be f960 b6bd c22f 94be
00000320: bb2b 413e fc99 24be 5bca 32be dd3c c93d
00000330: 1a36 97be df2f 85be 6b78 c33d c0b1 743e
00000340: d2ff 16be 065f 1dbe 1f14 873d 67ca aa3e
00000350: 51a5 943d 970e 113e 54f1 c2bc 40fb 3c3e
00000360: 86ab e23d 5914 833e 2680 793c f78b b7bd
00000370: e580 91bd a3a2 103c 56b3 363e 5b13 f9bc
00000380: d4a5 813e 5b81 823d d2b4 5ebe 93e2 38be
00000390: 187a 6abe 2afe d7bd 44bd 863e bd6f d73b
000003a0: 8e22 203e cdd8 583d 8f43 523e cd14 773d
000003b0: a3d7 41be e2ce 233e f9c3 973d a5be a33e
000003c0: ae0e 4abe d1c2 6bbc 0ea1 2bbe 14f7 54be
000003d0: 5583 f0bc ffd3 843e 5e10 053e 1f2a d1bd
000003e0: 2813 013e 6b87 973e b186 593e fd90 e4bd
000003f0: 80fa afbd b319 633e 5aff 603e 02bc 7cbe

linear2.weight f4 [3, 256]
-0.05033994 0.05037382 -0.0049194763 -0.04831725 0.026641404 0.035991974 0.0072565507 0.060739286
-0.041369975 -0.08974736 -0.011381108 0.0090660285 -0.021337897 -0.06799132 0.090453625 -0.060817078
0.11833223 0.031629045 -0.09002019 -0.068619095 -0.01848398 -0.061729077 0.042965617 -0.02743274
0.013411479 0.15066405 -0.045036487 -0.08033536 -0.02844147 7.827126e-06 0.027199391 0.009163845
0.015416272 -0.03782905 0.019304013 0.044742238 -0.048464064 0.017165974 -0.11955827 -0.0053133173
0.031969223 0.027389912 -0.068875514 -0.054856785 0.024896204 -0.018781116 -0.071574815 -0.031852122
0.010254259 0.0646811 -0.064147905 0.019077964 0.01449953 0.020716842 -0.07987734 -0.015928252
-0.10503839 -0.025626356 0.09029425 -0.010131737 -0.10366341 0.0055168057 0.014232235 -0.015094247
0.11742297 -0.028298158 0.038025465 -0.08361178 0.071111016 -0.0046216133 0.041190237 -0.01637109
-0.035514794 0.009715446 -0.0049228705 0.0068540936 0.03557025 -0.044051994 -0.086888194 -0.022218335
-0.09028048 -0.032432236 -0.03223245 -0.008835415 0.0053416626 0.06513483 0.013089163 0.008143632
-0.031451773 0.00017372926 -0.09115468 -0.01900796 -0.019138617 -0.021545663 -0.054056667 -0.083972186
-0.061729014 0.030704767 0.11974078 -0.05913763 -0.07465558 0.0634473 0.0014527928 -0.09397988
0.057677444 0.010154796 -0.008415786 -0.017781084 -0.0033945024 -0.045707807 -0.0048583527 -0.05559124
-0.022257661 -0.020345131 0.18344407 -0.0062615387 -0.06621078 -0.10900505 -0.0909353 -0.026778527
-0.0886406 0.010425016 0.02961201 0.01601548 -0.021105068 -0.10259375 -0.0863305 -0.0945859
-0.06535397 0.012918155 0.008627523 -0.0031515257 0.03606054 -0.012190666 -0.078777865 0.008820333
0.043461256 -0.08910195 -0.026381014 -0.024501342 -0.09959465 -0.05588577 -0.08527454 -0.09706947
-0.08651839 -0.05878056 0.0015834341 0.028788187 -0.070408106 0.070613265 -0.024519311 -0.024992263
-0.073613495 -0.021437159 0.034641236 0.035268538 -0.04205451 -0.058344398 -0.06742652 -0.058977395
-0.0030717691 -0.018500559 -0.029182123 -0.10403936 0.003483058 -0.09182648 -0.046481177 0.08559731
-0.08029988 -0.06761492 0.023669817 -0.08706507 -0.08555873 -0.06017458 0.034634594 0.023335569
0.059650317 -0.09865647 0.009376225 -0.058503326 -0.1019241 -0.07687826 -0.0161293 0.00787132
0.029708056 -0.0060011763 -0.11000965 0.015829615 0.0010652565 -0.036417294 -0.055575453 0.023333153
0.003512767 -0.005323321 -0.012455109 0.026844224 0.036487527 0.020147119 -0.09500141 -0.038737025
-0.040632363 0.04590253 -0.021887768 -0.06083217 -0.0585513 0.019303024 0.016936552 -0.033365205
0.09397118 -0.058256324 -0.043572936 -0.053861972 -0.02091721 0.0033076368 0.004727899 0.0014496722
-0.063836955 -0.019934116 0.018545423 -0.06301633 -0.0375678 0.04045324 -0.007833792 0.086740255
-0.07447313 -0.05690765 0.0020826622 0.004672687 -0.008934693 -0.04713022 0.053867046 0.04303403
-0.102222115 -0.05142475 0.001371816 0.15797827 0.052816138 0.095049664 0.09359638 -0.04941785
0.03398523 -0.05521223 -0.02275903 -0.054594573 -0.002160018 -0.027873915 -0.047549944 0.01962416
0.036522493 0.02053937 -0.02900318 0.0472192 0.00091094663 -0.052852526 -0.1080263 0.020605646
00000000: 4131 4ebd c754 4e3d 8f33 a1bb 4fe8 45bd
00000010: 133f da3c 526c 133d 5cc8 ed3b c2c9 783d
00000020: 9073 29bd 77cd b7bd d477 3abc ae89 143c
00000030: d0cc aebc 083f 8bbd c03f b93d 541b 79bd
00000040: 2b58 f23d 758d 013d 815c b8bd 2b88 8cbd
00000050: b76b 97bc a1d7 7cbd b7fc 2f3d a0ba e0bc
00000060: d2bb 5b3c ad47 1a3e 2e78 38bd dd86 a4bd
00000070: 16fe e8bc 4051 0337 42d1 de3c f423 163c
00000080: 8894 7c3c a2f2 1abd 7323 9e3c a343 373d
00000090: 4182 46bd a89f 8c3c f7da f4bd 561b aebb
000000a0: 29f2 023d cf60 e03c 9b0e 8dbd 82b1 60bd
000000b0: 20f3 cb3c dbda 99bc d195 92bd 5f77 02bd
000000c0: 7b01 283c 8677 843d fa5f 83bd 6449 9c3c
000000d0: 708f 6d3c 5eb6 a93c bb96 a3bd f77b 82bc
000000e0: 5e1e d7bd 5dee d1bc 31ec b83d 96ff 25bc
000000f0: 7b4d d4bd 52c6 b43b 522e 693c dc4d 77bc
00000100: 747b f03d 8ad1 e7bc 97c0 1b3d a73c abbd
00000110: a7a2 913d e770 97bb 18b7 283d aa1c 86bc
00000120: f677 11bd 892d 1f3c 0850 a1bb 4e98 e03b
00000130: 1cb2 113d dd6f 34bd 70f2 b1bd 3a03 b6bc
00000140: f9e4 b8bd aad7 04bd 2c06 04bd 6bc2 10bc
00000150: 1d09 af3b 6965 853d ee73 563c de6c 053c
00000160: 93d3 00bd 182b 3639 4eaf babd 95b6 9bbc
00000170: 97c8 9cbc 8880 b0bc 866a 5dbd 9cf9 abbd
00000180: 90d7 7cbd 9088 fb3c a73a f53d 4d3a 72bd
00000190: 06e5 98bd a8f0 813d a36b be3a 8678 c0bd
000001a0: 2f3f 6c3d 4d60 263c 5de2 09bc a3a9 91bc
000001b0: 4d76 5ebb 1c38 3bbd d132 9fbb a4b3 63bd
000001c0: b355 b6bc d5aa a6bc c3d8 3b3e 982d cdbb
000001d0: 8499 87bd 0a3e dfbd 493c babd a45e dbbc
000001e0: 3489 b5bd b0cd 2a3c e394 f23c e532 833c
000001f0: 89e4 acbc ac1c d2bd 0cce b0bd 41b6 c1bd
00000200: 4dd8 85bd aba6 533c 745a 0d3c d489 4ebb
00000210: 37b4 133d 5cbb 47bc 4a56 a1bd 2883 103c
00000220: 6e04 323d 157b b6bd ff1c d8bc 0ab7 c8bc
00000230: 48f8 cbbd 7ae8 64bd 6ba4 aebd 5ccc c6bd
00000240: 8e30 b1bd e2c3 70bd 3b8b cf3a 34d5 eb3c
00000250: 2032 90bd b09d 903d b9dc c8bc 93bc ccbc
00000260: acc2 96bd fb9c afbc f8e3 0d3d be75 103d
00000270: 5a41 2cbd 89fa 6ebd ea16 8abd 4892 71bd
00000280: bc4f 49bb 7c8e 97bc 590f efbc 9712 d5bd
00000290: 0444 643b 860f bcbd 0c63 3ebd a44d af3d
000002a0: 4374 a4bd b179 8abd 34e7 c13c 2c4f b2bd
000002b0: 6a39 afbd 9f79 76bd 01dd 0d3d 3c2a bf3c
000002c0: e453 743d 670c cabd bd9e 193c 2fa1 6fbd
000002d0: 95bd d0bd 5972 9dbd 9821 84bc b5f6 003c
000002e0: 4f5e f33c 84a5 c4bb bd4c e1bd 1cad 813c
000002f0: 14a0 8b3a 4d2a 15bd 16a3 63bd 2b25 bf3c
00000300: 7336 663b 416f aebb 8310 4cbc 6be8 db3c
00000310: f273 153d 920b a53c 1990 c2bd b7aa 1ebd
00000320: 1f6e 26bd 4b04 3c3d fa4d b3bc 272b 79bd
00000330: 7dd3 6fbd 6021 9e3c 86be 8a3c f4a9 08bd
00000340: f673 c03d 2f9e 6ebd 8979 32bd 5f9e 5cbd
00000350: 925a abbc f0c4 583b 7eec 9a3b ed02 be3a
00000360: f3bc 82bd df4c a3bc 92ec 973c b50e 81bd
00000370: b2e0 19bd 4cb2 253d 4e59 00bc e0a4 b13d
00000380: 5e85 98bd ff17 69bd 467d 083b 571d 993b
00000390: d262 12bc 9e0b 41bd b1a3 5c3d 7344 303d
000003a0: d459 d1bd c2a2 52bd 82ce b33a 0ec5 213e
000003b0: bc55 583d 66a9 c23d 75af bf3d 5f6a 4abd
000003c0: 1934 0b3d 3826 62bd 2571 babc 8f9e 5fbd
000003d0: 178f 0dbb d657 e4bc bbc3 42bd d9c2 a03c
000003e0: 9c98 153d 2e42 a83c 1498 edbc eb68 413d
000003f0: 98cc 6e3a e47b 58bd e53c ddbd 2ccd a83c

linear2.bias f4 [3]
-0.062389743 0.0013195187 -0.06342093
00000000: 638c 7fbd b3f3 ac3a d5e2 81bd
